…
I0724 18:28:35.136868 30650 net.cpp:42] Initializing net from parameters: 
name: "singleFrame_flow"
state {
  phase: TRAIN
}
layer {
  name: "data"
  type: "ImageData"
  top: "data"
  top: "label"
  include {
    phase: TRAIN
  }
  transform_param {
    mirror: true
    crop_size: 227
    mean_value: 128
    mean_value: 128
    mean_value: 128
    flow: true
  }
  image_data_param {
    source: "ucf101_singleFrame_flow_train_split1.txt"
    batch_size: 128
    root_folder: "/x/data/ucf101/flow_images_Georgia/"
    min_height: 227
    min_width: 227
  }
}
layer {
  name: "conv1"
  type: "Convolution"
  bottom: "data"
  top: "conv1"
  param {
    lr_mult: 1
    decay_mult: 1
  }
  param {
    lr_mult: 2
    decay_mult: 0
  }
  convolution_param {
    num_output: 96
    kernel_size: 7
    stride: 2
    weight_filler {
      type: "gaussian"
      std: 0.01
    }
    bias_filler {
      type: "constant"
      value: 0.1
    }
  }
}
layer {
  name: "relu1"
  type: "ReLU"
  bottom: "conv1"
  top: "conv1"
}
layer {
  name: "pool1"
  type: "Pooling"
  bottom: "conv1"
  top: "pool1"
  pooling_param {
    pool: MAX
    kernel_size: 3
    stride: 2
  }
}
layer {
  name: "norm1"
  type: "LRN"
  bottom: "pool1"
  top: "norm1"
  lrn_param {
    local_size: 5
    alpha: 0.0001
    beta: 0.75
  }
}
layer {
  name: "conv2"
  type: "Convolution"
  bottom: "norm1"
  top: "conv2"
  param {
    lr_mult: 1
    decay_mult: 1
  }
  param {
    lr_mult: 2
    decay_mult: 0
  }
  convolution_param {
    num_output: 384
    kernel_size: 5
    group: 2
    stride: 2
    weight_filler {
      type: "gaussian"
      std: 0.01
    }
    bias_filler {
      type: "constant"
      value: 0.1
    }
  }
}
layer {
  name: "relu2"
  type: "ReLU"
  bottom: "conv2"
  top: "conv2"
}
layer {
  name: "pool2"
  type: "Pooling"
  bottom: "conv2"
  top: "pool2"
  pooling_param {
    pool: MAX
    kernel_size: 3
    stride: 2
  }
}
layer {
  name: "norm2"
  type: "LRN"
  bottom: "pool2"
  top: "norm2"
  lrn_param {
    local_size: 5
    alpha: 0.0001
    beta: 0.75
  }
}
layer {
  name: "conv3"
  type: "Convolution"
  bottom: "norm2"
  top: "conv3"
  param {
    lr_mult: 1
    decay_mult: 1
  }
  param {
    lr_mult: 2
    decay_mult: 0
  }
  convolution_param {
    num_output: 512
    pad: 1
    kernel_size: 3
    weight_filler {
      type: "gaussian"
      std: 0.01
    }
    bias_filler {
      type: "constant"
      value: 0.1
    }
  }
}
layer {
  name: "relu3"
  type: "ReLU"
  bottom: "conv3"
  top: "conv3"
}
layer {
  name: "conv4"
  type: "Convolution"
  bottom: "conv3"
  top: "conv4"
  param {
    lr_mult: 1
    decay_mult: 1
  }
  param {
    lr_mult: 2
    decay_mult: 0
  }
  convolution_param {
    num_output: 512
    pad: 1
    kernel_size: 3
    group: 2
    weight_filler {
      type: "gaussian"
      std: 0.01
    }
    bias_filler {
      type: "constant"
      value: 0.1
    }
  }
}
layer {
  name: "relu4"
  type: "ReLU"
  bottom: "conv4"
  top: "conv4"
}
layer {
  name: "conv5"
  type: "Convolution"
  bottom: "conv4"
  top: "conv5"
  param {
    lr_mult: 1
    decay_mult: 1
  }
  param {
    lr_mult: 2
    decay_mult: 0
  }
  convolution_param {
    num_output: 384
    pad: 1
    kernel_size: 3
    group: 2
    weight_filler {
      type: "gaussian"
      std: 0.01
    }
    bias_filler {
      type: "constant"
      value: 0.1
    }
  }
}
layer {
  name: "relu5"
  type: "ReLU"
  bottom: "conv5"
  top: "conv5"
}
layer {
  name: "pool5"
  type: "Pooling"
  bottom: "conv5"
  top: "pool5"
  pooling_param {
    pool: MAX
    kernel_size: 3
    stride: 2
  }
}
layer {
  name: "fc6"
  type: "InnerProduct"
  bottom: "pool5"
  top: "fc6"
  param {
    lr_mult: 1
    decay_mult: 1
  }
  param {
    lr_mult: 2
    decay_mult: 0
  }
  inner_product_param {
    num_output: 4096
    weight_filler {
      type: "gaussian"
      std: 0.01
    }
    bias_filler {
      type: "constant"
      value: 0.1
    }
  }
}
layer {
  name: "relu6"
  type: "ReLU"
  bottom: "fc6"
  top: "fc6"
}
layer {
  name: "drop6"
  type: "Dropout"
  bottom: "fc6"
  top: "fc6"
  dropout_param {
    dropout_ratio: 0.5
  }
}
layer {
  name: "fc7"
  type: "InnerProduct"
  bottom: "fc6"
  top: "fc7"
  param {
    lr_mult: 1
    decay_mult: 1
  }
  param {
    lr_mult: 2
    decay_mult: 0
  }
  inner_product_param {
    num_output: 4096
    weight_filler {
      type: "gaussian"
      std: 0.01
    }
    bias_filler {
      type: "constant"
      value: 0.1
    }
  }
}
layer {
  name: "relu7"
  type: "ReLU"
  bottom: "fc7"
  top: "fc7"
}
layer {
  name: "drop7"
  type: "Dropout"
  bottom: "fc7"
  top: "fc7"
  dropout_param {
    dropout_ratio: 0.5
  }
}
layer {
  name: "fc8-ucf"
  type: "InnerProduct"
  bottom: "fc7"
  top: "fc8-ucf"
  param {
    lr_mult: 10
    decay_mult: 1
  }
  param {
    lr_mult: 20
    decay_mult: 0
  }
  inner_product_param {
    num_output: 101
    weight_filler {
      type: "gaussian"
      std: 0.01
    }
    bias_filler {
      type: "constant"
      value: 0
    }
  }
}
layer {
  name: "loss"
  type: "SoftmaxWithLoss"
  bottom: "fc8-ucf"
  bottom: "label"
  top: "loss"
}
layer {
  name: "accuracy"
  type: "Accuracy"
  bottom: "fc8-ucf"
  bottom: "label"
  top: "accuracy"
}
I0724 18:28:35.137056 30650 layer_factory.hpp:74] Creating layer data
I0724 18:28:35.137079 30650 net.cpp:84] Creating Layer data
I0724 18:28:35.137089 30650 net.cpp:339] data -> data
I0724 18:28:35.137120 30650 net.cpp:339] data -> label
I0724 18:28:35.137132 30650 net.cpp:113] Setting up data
I0724 18:28:35.137140 30650 image_data_layer.cpp:41] Opening file ucf101_singleFrame_flow_train_split1.txt
I0724 18:28:36.411645 30650 image_data_layer.cpp:56] A total of 1427644 images.
I0724 18:28:36.413372 30650 image_data_layer.cpp:85] output data size: 128,3,227,227
I0724 18:28:36.440155 30650 net.cpp:120] Top shape: 128 3 227 227 (19787136)
I0724 18:28:36.440181 30650 net.cpp:120] Top shape: 128 (128)
I0724 18:28:36.440191 30650 layer_factory.hpp:74] Creating layer label_data_1_split
I0724 18:28:36.440203 30650 net.cpp:84] Creating Layer label_data_1_split
I0724 18:28:36.440210 30650 net.cpp:381] label_data_1_split <- label
I0724 18:28:36.440222 30650 net.cpp:339] label_data_1_split -> label_data_1_split_0
I0724 18:28:36.440233 30650 net.cpp:339] label_data_1_split -> label_data_1_split_1
I0724 18:28:36.440239 30650 net.cpp:113] Setting up label_data_1_split
I0724 18:28:36.440250 30650 net.cpp:120] Top shape: 128 (128)
I0724 18:28:36.440255 30650 net.cpp:120] Top shape: 128 (128)
I0724 18:28:36.440259 30650 layer_factory.hpp:74] Creating layer conv1
I0724 18:28:36.440270 30650 net.cpp:84] Creating Layer conv1
I0724 18:28:36.440274 30650 net.cpp:381] conv1 <- data
I0724 18:28:36.440281 30650 net.cpp:339] conv1 -> conv1
I0724 18:28:36.440291 30650 net.cpp:113] Setting up conv1
I0724 18:28:36.440807 30650 net.cpp:120] Top shape: 128 96 111 111 (151400448)
I0724 18:28:36.440820 30650 layer_factory.hpp:74] Creating layer relu1
I0724 18:28:36.440830 30650 net.cpp:84] Creating Layer relu1
I0724 18:28:36.440835 30650 net.cpp:381] relu1 <- conv1
I0724 18:28:36.440840 30650 net.cpp:328] relu1 -> conv1 (in-place)
I0724 18:28:36.440847 30650 net.cpp:113] Setting up relu1
I0724 18:28:36.440855 30650 net.cpp:120] Top shape: 128 96 111 111 (151400448)
I0724 18:28:36.440860 30650 layer_factory.hpp:74] Creating layer pool1
I0724 18:28:36.440866 30650 net.cpp:84] Creating Layer pool1
I0724 18:28:36.440881 30650 net.cpp:381] pool1 <- conv1
I0724 18:28:36.440886 30650 net.cpp:339] pool1 -> pool1
I0724 18:28:36.440893 30650 net.cpp:113] Setting up pool1
I0724 18:28:36.440910 30650 net.cpp:120] Top shape: 128 96 55 55 (37171200)
I0724 18:28:36.440915 30650 layer_factory.hpp:74] Creating layer norm1
I0724 18:28:36.440923 30650 net.cpp:84] Creating Layer norm1
I0724 18:28:36.440927 30650 net.cpp:381] norm1 <- pool1
I0724 18:28:36.440932 30650 net.cpp:339] norm1 -> norm1
I0724 18:28:36.440939 30650 net.cpp:113] Setting up norm1
I0724 18:28:36.440948 30650 net.cpp:120] Top shape: 128 96 55 55 (37171200)
I0724 18:28:36.440951 30650 layer_factory.hpp:74] Creating layer conv2
I0724 18:28:36.440958 30650 net.cpp:84] Creating Layer conv2
I0724 18:28:36.440963 30650 net.cpp:381] conv2 <- norm1
I0724 18:28:36.440968 30650 net.cpp:339] conv2 -> conv2
I0724 18:28:36.440973 30650 net.cpp:113] Setting up conv2
I0724 18:28:36.456358 30650 net.cpp:120] Top shape: 128 384 26 26 (33226752)
I0724 18:28:36.456393 30650 layer_factory.hpp:74] Creating layer relu2
I0724 18:28:36.456404 30650 net.cpp:84] Creating Layer relu2
I0724 18:28:36.456409 30650 net.cpp:381] relu2 <- conv2
I0724 18:28:36.456420 30650 net.cpp:328] relu2 -> conv2 (in-place)
I0724 18:28:36.456429 30650 net.cpp:113] Setting up relu2
I0724 18:28:36.456435 30650 net.cpp:120] Top shape: 128 384 26 26 (33226752)
I0724 18:28:36.456439 30650 layer_factory.hpp:74] Creating layer pool2
I0724 18:28:36.456449 30650 net.cpp:84] Creating Layer pool2
I0724 18:28:36.456452 30650 net.cpp:381] pool2 <- conv2
I0724 18:28:36.456460 30650 net.cpp:339] pool2 -> pool2
I0724 18:28:36.456468 30650 net.cpp:113] Setting up pool2
I0724 18:28:36.456477 30650 net.cpp:120] Top shape: 128 384 13 13 (8306688)
I0724 18:28:36.456482 30650 layer_factory.hpp:74] Creating layer norm2
I0724 18:28:36.456490 30650 net.cpp:84] Creating Layer norm2
I0724 18:28:36.456492 30650 net.cpp:381] norm2 <- pool2
I0724 18:28:36.456500 30650 net.cpp:339] norm2 -> norm2
I0724 18:28:36.456506 30650 net.cpp:113] Setting up norm2
I0724 18:28:36.456512 30650 net.cpp:120] Top shape: 128 384 13 13 (8306688)
I0724 18:28:36.456516 30650 layer_factory.hpp:74] Creating layer conv3
I0724 18:28:36.456529 30650 net.cpp:84] Creating Layer conv3
I0724 18:28:36.456534 30650 net.cpp:381] conv3 <- norm2
I0724 18:28:36.456539 30650 net.cpp:339] conv3 -> conv3
I0724 18:28:36.456545 30650 net.cpp:113] Setting up conv3
I0724 18:28:36.580131 30650 net.cpp:120] Top shape: 128 512 13 13 (11075584)
I0724 18:28:36.580164 30650 layer_factory.hpp:74] Creating layer relu3
I0724 18:28:36.580175 30650 net.cpp:84] Creating Layer relu3
I0724 18:28:36.580180 30650 net.cpp:381] relu3 <- conv3
I0724 18:28:36.580472 30650 net.cpp:328] relu3 -> conv3 (in-place)
I0724 18:28:36.580484 30650 net.cpp:113] Setting up relu3
I0724 18:28:36.580492 30650 net.cpp:120] Top shape: 128 512 13 13 (11075584)
I0724 18:28:36.580497 30650 layer_factory.hpp:74] Creating layer conv4
I0724 18:28:36.580505 30650 net.cpp:84] Creating Layer conv4
I0724 18:28:36.580509 30650 net.cpp:381] conv4 <- conv3
I0724 18:28:36.580756 30650 net.cpp:339] conv4 -> conv4
I0724 18:28:36.580766 30650 net.cpp:113] Setting up conv4
I0724 18:28:36.659342 30650 net.cpp:120] Top shape: 128 512 13 13 (11075584)
I0724 18:28:36.659380 30650 layer_factory.hpp:74] Creating layer relu4
I0724 18:28:36.659394 30650 net.cpp:84] Creating Layer relu4
I0724 18:28:36.659400 30650 net.cpp:381] relu4 <- conv4
I0724 18:28:36.659407 30650 net.cpp:328] relu4 -> conv4 (in-place)
I0724 18:28:36.659415 30650 net.cpp:113] Setting up relu4
I0724 18:28:36.659423 30650 net.cpp:120] Top shape: 128 512 13 13 (11075584)
I0724 18:28:36.659427 30650 layer_factory.hpp:74] Creating layer conv5
I0724 18:28:36.659440 30650 net.cpp:84] Creating Layer conv5
I0724 18:28:36.659445 30650 net.cpp:381] conv5 <- conv4
I0724 18:28:36.659452 30650 net.cpp:339] conv5 -> conv5
I0724 18:28:36.659461 30650 net.cpp:113] Setting up conv5
I0724 18:28:36.718027 30650 net.cpp:120] Top shape: 128 384 13 13 (8306688)
I0724 18:28:36.725052 30650 layer_factory.hpp:74] Creating layer relu5
I0724 18:28:36.725123 30650 net.cpp:84] Creating Layer relu5
I0724 18:28:36.725145 30650 net.cpp:381] relu5 <- conv5
I0724 18:28:36.725165 30650 net.cpp:328] relu5 -> conv5 (in-place)
I0724 18:28:36.725185 30650 net.cpp:113] Setting up relu5
I0724 18:28:36.725203 30650 net.cpp:120] Top shape: 128 384 13 13 (8306688)
I0724 18:28:36.725216 30650 layer_factory.hpp:74] Creating layer pool5
I0724 18:28:36.725236 30650 net.cpp:84] Creating Layer pool5
I0724 18:28:36.725250 30650 net.cpp:381] pool5 <- conv5
I0724 18:28:36.725267 30650 net.cpp:339] pool5 -> pool5
I0724 18:28:36.725286 30650 net.cpp:113] Setting up pool5
I0724 18:28:36.725306 30650 net.cpp:120] Top shape: 128 384 6 6 (1769472)
I0724 18:28:36.725322 30650 layer_factory.hpp:74] Creating layer fc6
I0724 18:28:36.725345 30650 net.cpp:84] Creating Layer fc6
I0724 18:28:36.725359 30650 net.cpp:381] fc6 <- pool5
I0724 18:28:36.725378 30650 net.cpp:339] fc6 -> fc6
I0724 18:28:36.725397 30650 net.cpp:113] Setting up fc6
I0724 18:28:39.382218 30650 net.cpp:120] Top shape: 128 4096 (524288)
I0724 18:28:39.382665 30650 layer_factory.hpp:74] Creating layer relu6
I0724 18:28:39.382880 30650 net.cpp:84] Creating Layer relu6
I0724 18:28:39.383076 30650 net.cpp:381] relu6 <- fc6
I0724 18:28:39.383272 30650 net.cpp:328] relu6 -> fc6 (in-place)
I0724 18:28:39.383472 30650 net.cpp:113] Setting up relu6
I0724 18:28:39.383659 30650 net.cpp:120] Top shape: 128 4096 (524288)
I0724 18:28:39.383851 30650 layer_factory.hpp:74] Creating layer drop6
I0724 18:28:39.384070 30650 net.cpp:84] Creating Layer drop6
I0724 18:28:39.384335 30650 net.cpp:381] drop6 <- fc6
I0724 18:28:39.384555 30650 net.cpp:328] drop6 -> fc6 (in-place)
I0724 18:28:39.384786 30650 net.cpp:113] Setting up drop6
I0724 18:28:39.385043 30650 net.cpp:120] Top shape: 128 4096 (524288)
I0724 18:28:39.385280 30650 layer_factory.hpp:74] Creating layer fc7
I0724 18:28:39.385485 30650 net.cpp:84] Creating Layer fc7
I0724 18:28:39.385668 30650 net.cpp:381] fc7 <- fc6
I0724 18:28:39.385854 30650 net.cpp:339] fc7 -> fc7
I0724 18:28:39.386036 30650 net.cpp:113] Setting up fc7
I0724 18:28:39.959477 30650 net.cpp:120] Top shape: 128 4096 (524288)
I0724 18:28:39.959954 30650 layer_factory.hpp:74] Creating layer relu7
I0724 18:28:39.960248 30650 net.cpp:84] Creating Layer relu7
I0724 18:28:39.960458 30650 net.cpp:381] relu7 <- fc7
I0724 18:28:39.960650 30650 net.cpp:328] relu7 -> fc7 (in-place)
I0724 18:28:39.960849 30650 net.cpp:113] Setting up relu7
I0724 18:28:39.961048 30650 net.cpp:120] Top shape: 128 4096 (524288)
I0724 18:28:39.961246 30650 layer_factory.hpp:74] Creating layer drop7
I0724 18:28:39.961432 30650 net.cpp:84] Creating Layer drop7
I0724 18:28:39.961608 30650 net.cpp:381] drop7 <- fc7
I0724 18:28:39.961786 30650 net.cpp:328] drop7 -> fc7 (in-place)
I0724 18:28:39.961974 30650 net.cpp:113] Setting up drop7
I0724 18:28:39.962155 30650 net.cpp:120] Top shape: 128 4096 (524288)
I0724 18:28:39.962355 30650 layer_factory.hpp:74] Creating layer fc8-ucf
I0724 18:28:39.962561 30650 net.cpp:84] Creating Layer fc8-ucf
I0724 18:28:39.962764 30650 net.cpp:381] fc8-ucf <- fc7
I0724 18:28:39.962968 30650 net.cpp:339] fc8-ucf -> fc8-ucf
I0724 18:28:39.963198 30650 net.cpp:113] Setting up fc8-ucf
I0724 18:28:39.976616 30650 net.cpp:120] Top shape: 128 101 (12928)
I0724 18:28:39.977239 30650 layer_factory.hpp:74] Creating layer fc8-ucf_fc8-ucf_0_split
I0724 18:28:39.977483 30650 net.cpp:84] Creating Layer fc8-ucf_fc8-ucf_0_split
I0724 18:28:39.977711 30650 net.cpp:381] fc8-ucf_fc8-ucf_0_split <- fc8-ucf
I0724 18:28:39.977943 30650 net.cpp:339] fc8-ucf_fc8-ucf_0_split -> fc8-ucf_fc8-ucf_0_split_0
I0724 18:28:39.978193 30650 net.cpp:339] fc8-ucf_fc8-ucf_0_split -> fc8-ucf_fc8-ucf_0_split_1
I0724 18:28:39.978430 30650 net.cpp:113] Setting up fc8-ucf_fc8-ucf_0_split
I0724 18:28:39.978667 30650 net.cpp:120] Top shape: 128 101 (12928)
I0724 18:28:39.978876 30650 net.cpp:120] Top shape: 128 101 (12928)
I0724 18:28:39.979082 30650 layer_factory.hpp:74] Creating layer loss
I0724 18:28:39.979321 30650 net.cpp:84] Creating Layer loss
I0724 18:28:39.979511 30650 net.cpp:381] loss <- fc8-ucf_fc8-ucf_0_split_0
I0724 18:28:39.979708 30650 net.cpp:381] loss <- label_data_1_split_0
I0724 18:28:39.979907 30650 net.cpp:339] loss -> loss
I0724 18:28:39.980094 30650 net.cpp:113] Setting up loss
…
